…
Weights & Biases: run 'pip install wandb' to automatically track and visualize YOLOv5 🚀 runs (RECOMMENDED)
VisualDL: Start with 'VisualDL --logdir runs/train', view at http://localhost:6006/
Overriding model.yaml nc=80 with nc=1

                 from  n    params  layer                                   arguments                     
W1121 15:15:58.882243  2317 device_context.cc:447] Please NOTE: device: 0, GPU Compute Capability: 7.0, Driver API Version: 10.1, Runtime API Version: 10.1
W1121 15:15:58.886495  2317 device_context.cc:465] device: 0, cuDNN Version: 7.6.
  0                -1  1      3584  models.common.Conv                      [3, 32, 6, 2, 2]              
  1                -1  1     18688  models.common.Conv                      [32, 64, 3, 2]                
  2                -1  1     19200  models.common.C3                        [64, 64, 1]                   
  3                -1  1     74240  models.common.Conv                      [64, 128, 3, 2]               
  4                -1  2    116736  models.common.C3                        [128, 128, 2]                 
  5                -1  1    295936  models.common.Conv                      [128, 256, 3, 2]              
  6                -1  3    627712  models.common.C3                        [256, 256, 3]                 
  7                -1  1   1181696  models.common.Conv                      [256, 512, 3, 2]              
  8                -1  1   1185792  models.common.C3                        [512, 512, 1]                 
  9                -1  1    658432  models.common.SPPF                      [512, 512, 5]                 
 10                -1  1    132096  models.common.Conv                      [512, 256, 1, 1]              
 11                -1  1         0  models.common.Upsample                  [None, 2, 'nearest']          
 12           [-1, 6]  1         0  models.common.Concat                    [1]                           
 13                -1  1    363520  models.common.C3                        [512, 256, 1, False]          
 14                -1  1     33280  models.common.Conv                      [256, 128, 1, 1]              
 15                -1  1         0  models.common.Upsample                  [None, 2, 'nearest']          
 16           [-1, 4]  1         0  models.common.Concat                    [1]                           
 17                -1  1     91648  models.common.C3                        [256, 128, 1, False]          
 18                -1  1    147968  models.common.Conv                      [128, 128, 3, 2]              
 19          [-1, 14]  1         0  models.common.Concat                    [1]                           
 20                -1  1    297984  models.common.C3                        [256, 256, 1, False]          
 21                -1  1    590848  models.common.Conv                      [256, 256, 3, 2]              
 22          [-1, 10]  1         0  models.common.Concat                    [1]                           
 23                -1  1   1185792  models.common.C3                        [512, 512, 1, False]          
 24      [17, 20, 23]  1     16182  models.yolo.Detect                      [1, [[10, 13, 16, 30, 33, 23], [30, 61, 62, 45, 59, 119], [116, 90, 156, 198, 373, 326]], [128, 256, 512]]
Model Summary: 269 layers, 7041334 parameters, 7022326 gradients, 15.8 GFLOPs

Transferred 285/292 items from weights/yolov5s.pdparams
Scaled weight_decay = 0.0005
optimizer: Momentum with parameter groups 57 weight, 60 weight (no decay), 60 bias
…
